…
前 10 个元素(展平后)： [0.06286466121673584, 0.08875232189893723, 0.2838492691516876, -0.14353398978710175, -0.1608094573020935, 0.12136702239513397, 0.019131986424326897, -0.059806134551763535, -0.05439804494380951, 0.13108395040035248]
后 10 个元素(展平后)： [0.22063048183918, -0.12641817331314087, -0.12822631001472473, 0.12834864854812622, -0.13959255814552307, -0.21574237942695618, 0.03987656533718109, 0.06958052515983582, 0.06626653671264648, 0.11369013786315918]
────────────────────────────────────────────────────────────

────────────────────────────────────────────────────────────
模块: Qwen3DecoderLayer(
  (self_attn): Qwen3Attention(
    (q_proj): Linear(in_features=1024, out_features=2048, bias=False)
    (k_proj): Linear(in_features=1024, out_features=1024, bias=False)
    (v_proj): Linear(in_features=1024, out_features=1024, bias=False)
    (o_proj): Linear(in_features=2048, out_features=1024, bias=False)
    (q_norm): Qwen3RMSNorm((128,), eps=1e-06)
    (k_norm): Qwen3RMSNorm((128,), eps=1e-06)
  )
  (mlp): Qwen3MLP(
    (gate_proj): Linear(in_features=1024, out_features=3072, bias=False)
    (up_proj): Linear(in_features=1024, out_features=3072, bias=False)
    (down_proj): Linear(in_features=3072, out_features=1024, bias=False)
    (act_fn): SiLU()
  )
  (input_layernorm): Qwen3RMSNorm((1024,), eps=1e-06)
  (post_attention_layernorm): Qwen3RMSNorm((1024,), eps=1e-06)
)
张量形状: (1, 2, 1024)
运算前：
前 10 个元素(展平后)： [0.01385498046875, -0.050048828125, -0.0537109375, 0.0133056640625, -0.01312255859375, 0.01416015625, 0.035888671875, -0.034423828125, -0.04296875, 0.01458740234375]
后 10 个元素(展平后)： [-0.050048828125, 0.004669189453125, -0.01806640625, -0.02783203125, 0.005279541015625, -0.05322265625, -0.0634765625, -0.04150390625, 0.007537841796875, -0.06494140625]
…
运算后:
前 10 个元素(展平后)： [0.24780283868312836, -3.8115293979644775, -1.3791788816452026, -3.7392828464508057, 2.275217056274414, -4.8278374671936035, 6.408929347991943, -10.612255096435547, -9.689056396484375, 14.032238960266113]
后 10 个元素(展平后)： [-0.6393142938613892, 0.8295415043830872, -0.13489310443401337, 0.4502272307872772, -1.7217086553573608, -0.2401786595582962, 2.05753231048584, 0.27830058336257935, 0.39561086893081665, 0.11450553685426712]
────────────────────────────────────────────────────────────

────────────────────────────────────────────────────────────
模块: Qwen3Model(
  (embed_tokens): Embedding(151936, 1024)
  (layers): ModuleList(
    (0-27): 28 x Qwen3DecoderLayer(
      (self_attn): Qwen3Attention(
        (q_proj): Linear(in_features=1024, out_features=2048, bias=False)
        (k_proj): Linear(in_features=1024, out_features=1024, bias=False)
        (v_proj): Linear(in_features=1024, out_features=1024, bias=False)
        (o_proj): Linear(in_features=2048, out_features=1024, bias=False)
        (q_norm): Qwen3RMSNorm((128,), eps=1e-06)
        (k_norm): Qwen3RMSNorm((128,), eps=1e-06)
      )
      (mlp): Qwen3MLP(
        (gate_proj): Linear(in_features=1024, out_features=3072, bias=False)
        (up_proj): Linear(in_features=1024, out_features=3072, bias=False)
        (down_proj): Linear(in_features=3072, out_features=1024, bias=False)
        (act_fn): SiLU()
      )
      (input_layernorm): Qwen3RMSNorm((1024,), eps=1e-06)
      (post_attention_layernorm): Qwen3RMSNorm((1024,), eps=1e-06)
    )
  )
  (norm): Qwen3RMSNorm((1024,), eps=1e-06)
  (rotary_emb): Qwen3RotaryEmbedding()
)
张量形状: (1, 2, 1024)
前 10 个元素(展平后)： [0.24780283868312836, -3.8115293979644775, -1.3791788816452026, -3.7392828464508057, 2.275217056274414, -4.8278374671936035, 6.408929347991943, -10.612255096435547, -9.689056396484375, 14.032238960266113]
…
前 10 个元素(展平后)： [8.529511451721191, 7.574283599853516, 4.791435718536377, 4.037370204925537, 3.377108097076416, 5.066119194030762, 6.679141998291016, 7.344912528991699, 9.988298416137695, 6.41732120513916]
后 10 个元素(展平后)： [-1.2519882917404175, -1.251967430114746, -1.251967430114746, -1.251967430114746, -1.2519882917404175, -1.2519882917404175, -1.251967430114746, -1.251967430114746, -1.2519882917404175, -1.251988172531128]
────────────────────────────────────────────────────────────

────────────────────────────────────────────────────────────
模块: Qwen3ForCausalLM(
  (model): Qwen3Model(
    (embed_tokens): Embedding(151936, 1024)
    (layers): ModuleList(
      (0-27): 28 x Qwen3DecoderLayer(
        (self_attn): Qwen3Attention(
          (q_proj): Linear(in_features=1024, out_features=2048, bias=False)
          (k_proj): Linear(in_features=1024, out_features=1024, bias=False)
          (v_proj): Linear(in_features=1024, out_features=1024, bias=False)
          (o_proj): Linear(in_features=2048, out_features=1024, bias=False)
          (q_norm): Qwen3RMSNorm((128,), eps=1e-06)
          (k_norm): Qwen3RMSNorm((128,), eps=1e-06)
        )
        (mlp): Qwen3MLP(
          (gate_proj): Linear(in_features=1024, out_features=3072, bias=False)
          (up_proj): Linear(in_features=1024, out_features=3072, bias=False)
          (down_proj): Linear(in_features=3072, out_features=1024, bias=False)
          (act_fn): SiLU()
        )
        (input_layernorm): Qwen3RMSNorm((1024,), eps=1e-06)
        (post_attention_layernorm): Qwen3RMSNorm((1024,), eps=1e-06)
      )
    )
    (norm): Qwen3RMSNorm((1024,), eps=1e-06)
    (rotary_emb): Qwen3RotaryEmbedding()
  )
  (lm_head): Linear(in_features=1024, out_features=151936, bias=False)
)
张量形状: (1, 2, 151936)
前 10 个元素(展平后)： [8.529511451721191, 7.574283599853516, 4.791435718536377, 4.037370204925537, 3.377108097076416, 5.066119194030762, 6.679141998291016, 7.344912528991699, 9.988298416137695, 6.41732120513916]
后 10 个元素(展平后)： [-1.2519882917404175, -1.251967430114746, -1.251967430114746, -1.251967430114746, -1.2519882917404175, -1.2519882917404175, -1.251967430114746, -1.251967430114746, -1.2519882917404175, -1.251988172531128]
…
